_episodes/best_model.pt (torch, 2216 bytes, 3 tensors)

linear1.weight f4 [5, 6]
1.651701 0.09605806 -0.07118901 0.9605295 0.015377407 -0.371388 0.013115074 -0.51365
0.30905572 2.2449076 0.055739984 -0.8919731 1.7393211 -0.74446875 -1.1512251 -3.2990642
0.11922666 -0.6550488 -3.205555 0.28762132 -0.77959293 1.9879546 1.1506681 1.6976982
-2.0774918 -1.4738686 1.4110032 2.5820665 0.9360142 -1.8943431
00000000: f06a d33f 17ba c43d 8bcb 91bd 43e5 753f
00000010: 85f1 7b3c 9126 bebe 9be0 563c 917e 03bf
00000020: 8d3c 9e3e 91ac 0f40 9c4f 643d 5958 64bf
00000030: 13a2 de3f 8195 3ebf 585b 93bf de23 53c0
00000040: 1b2d f43d 47b1 27bf d027 4dc0 1a43 933e
00000050: 6793 47bf 4c75 fe3f 1849 933f 2d4e d93f
00000060: a0f5 04c0 baa7 bcbf c19b b43f 9440 2540
00000070: a09e 6f3f d679 f2bf

linear1.bias f4 [5]
-2.788082 -4.1044197 3.2972887 0.6083288 -5.1546845
00000000: ef6f 32c0 6857 83c0 c706 5340 70bb 1b3f
00000010: 2df3 a4c0

linear2.weight f4 [1, 5]
3.558051 5.1933765 -5.4616594 1.9721059 3.9450781
00000000: 1cb7 6340 2430 a640 eac5 aec0 f76d fc3f
00000010: 297c 7c40
