_episodes/best_model_sm.pt (torch, 2240 bytes, 3 tensors)

linear1.weight f4 [5, 4]
0	0xbf9bc459	-1.2169296
1	0x3fb01c5d	1.3758656
2	0x4034602f	2.8183706
3	0xbfa6cfce	-1.3032167
4	0xbfa09ccd	-1.2547852
5	0x3f8e1634	1.1100526
6	0xbf4594dc	-0.77180266
7	0xbe367820	-0.17819262
8	0xbe84dd09	-0.25949886
9	0xbf8eefea	-1.1166966
10	0xbfbe3882	-1.4860995
11	0xc03dd5ba	-2.9661698
12	0x3e72b3f4	0.23701459
13	0x40019bb5	2.0251286
14	0x3fa67f8a	1.3007672
15	0x3fcfe99a	1.6243165
16	0x3acd6ef5	0.0015673327
17	0xbfa8e04d	-1.3193451
18	0xc03f61b4	-2.9903383
19	0x3f928f9b	1.1450075

linear1.bias f4 [5]
0	0xc115410a	-9.328379
1	0x400bcdd6	2.1844382
2	0x409eb6b5	4.959803
3	0xc0e2ed6b	-7.0914817
4	0x4119e071	9.617295

linear2.weight f4 [1, 5]
0	0x409792f8	4.7366905
1	0x40896d49	4.2945905
2	0xc0444e87	-3.067293
3	0x409f99ca	4.987523
4	0xc08aef29	-4.3416944
